trained/PPO_1000000/policy.pth (torch, 166831 bytes, 12 tensors)

log_std f4 [8]
-0.16554865 0.08070686 -0.2979183 0.1395911 0.30150148 -0.15484822 0.15835002 -0.10358935
00000000: 9685 29be a349 a53d bf88 98be f8f0 0e3e
00000010: 675e 9a3e 8890 1ebe 8226 223e a726 d4bd

mlp_extractor.policy_net.0.weight f4 [64, 246]
0.04426 0.08780195 -0.053522673 -0.0160416 -0.0074084364 -0.026914349 -0.1288918 -0.100238115
0.2534192 0.10936992 0.03728846 -0.044844545 0.037461493 0.041648857 -0.005257523 -0.08891329
0.07618192 -0.082389235 -0.019770179 0.12921098 0.18620953 0.07950979 0.20777683 0.16598661
-0.019122615 0.21662822 0.038226947 -0.0015829031 0.06914506 0.02376192 0.062962376 -0.19598004
-0.05667911 0.06545111 -0.020391647 -0.055777054 -0.04440809 -0.051827785 -0.02646071 -0.2665784
-0.02402228 -0.04132219 -0.11657518 -0.02759648 -0.16230287 0.019972831 -0.040083107 0.1716035
-0.09469213 0.04138707 -0.010761507 0.024192896 0.016447335 -0.2272 -0.036620036 0.054306157
-0.07153983 -0.1694044 -0.09512522 -0.065101035 -0.06463342 -0.091931604 0.025723236 0.035512492
0.04351841 0.05124518 -0.019603634 0.05340336 -0.09850947 0.032073617 0.0056527536 0.06069037
0.0066786665 0.032415446 0.15831241 -0.026777131 -0.08264274 -0.11434123 -0.036874823 0.07009611
-0.04420633 -0.014636645 -0.026666 -0.034444433 0.10580039 0.068012126 0.059696928 0.11102461
0.016711807 -0.19722913 -0.03152268 -0.04120756 0.026390582 0.039989706 -0.025538895 -0.12568066
0.08179879 -0.11614873 -0.06901555 -0.2047396 0.031110244 0.09336387 0.18025824 0.022032646
-0.19584854 0.10284069 -0.15363267 0.05587943 -0.12542579 -0.08960518 -0.085720204 -0.017450634
0.0108300075 0.056031715 0.108814195 0.028218092 -0.035468828 0.05366962 -0.030221384 -0.0658498
-0.014106006 0.08776285 -0.056702733 0.023948353 0.026679948 0.0005843444 -0.12140135 -0.04691728
0.008276824 0.09409713 0.08619629 0.14264381 0.10016937 -0.016047664 -0.020665765 0.027426738
0.109340966 0.22479452 0.14853655 -0.12781169 -0.16181573 0.019736825 -0.043469377 0.040242396
0.08359715 -0.034067195 0.02463375 0.020561365 -0.055082027 0.10941691 0.030834623 0.07857656
0.0075151757 -0.039783616 -0.13077524 0.04814405 -0.05051461 0.027393574 -0.047897965 0.040097367
-0.00038061006 0.15976265 -0.14468421 -0.07404908 -0.02256983 -0.16314192 -0.0716541 -0.09060658
0.0025052007 -0.0031227388 0.0021917615 0.10532929 -0.19469786 0.08594298 -0.037006386 0.03686113
0.0201048 -0.046784867 0.028304387 0.026678251 -0.05173259 -0.11629966 -0.0864005 0.012381171
0.11074964 0.017273614 0.036478844 0.018025473 -0.095935054 -0.14514342 -0.008882708 0.025981976
-0.036089655 -0.11369661 -0.011788806 -0.0525036 -0.0445688 0.051264394 0.22690423 0.01640261
-0.06629172 0.0025939066 0.03613809 -0.09876888 0.07605842 -0.16328554 0.11323587 -0.17093042
0.018167961 -0.113332614 -0.0155145265 0.021332592 0.02617615 -0.065943144 0.0030338152 0.10600425
-0.101029046 -0.05068981 -0.015856491 -0.011732247 -0.0123290075 0.046162214 -0.106920615 -0.13654144
0.029791916 -0.0940459 0.059534553 -0.027863387 0.16514166 -0.016534444 -0.009417884 -0.13361111
-0.081710935 0.020875983 -0.20088595 0.0100216605 0.04056957 0.12605448 -0.11341394 0.06295625
-0.14349638 0.061720666 -0.27041072 -0.17540936 -0.060896747 0.0148653155 0.26652753 0.0037326883
0.10215098 -0.16971664 0.235476 0.32139948 -0.08561804 -0.06363271 0.0025649949 0.13334076
00000000: f949 353d 82d1 b33d 973a 5bbd ac69 83bc
00000010: 78c2 f2bb 7b7b dcbc 36fc 03be a449 cdbd
00000020: 29c0 813e 56fd df3d c9bb 183d eaae 37bd
00000030: 3971 193d fe97 2a3d 4d47 acbb 2c18 b6bd
00000040: 4405 9c3d b0bb a8bd 12f5 a1bc e24f 043e
00000050: b6ad 3e3e 07d6 a23d 73c3 543e 65f8 293e
00000060: 08a7 9cbc cad3 5d3e dc93 1c3d 6a79 cfba
00000070: ed9b 8d3d 5ca8 c23c 6bf2 803d feae 48be
00000080: 5b28 68bd 3b0b 863d 620c a7bc 7b76 64bd
00000090: 42e5 35bd 5f49 54bd 22c4 d8bc f77c 88be
000000a0: 5fca c4bc 7541 29bd f8be eebd 0312 e2bc
000000b0: b932 26be 109e a33c 2f2e 24bd d4b8 2f3e
000000c0: f3ed c1bd 7d85 293d 0851 30bc 2e30 c63c
000000d0: 90bc 863c 1ea7 68be e4fe 15bd 2270 5e3d
000000e0: 7983 92bd 5978 2dbe 03d1 c2bd b153 85bd
000000f0: 875e 84bd a346 bcbd 89b9 d23c 8c75 113d
00000100: 5c40 323d 77e6 513d cd97 a0bc 7bbd 5a3d
00000110: 55bf c9bd a05f 033d bc3a b93b 7796 783d
00000120: b7d8 da3b 0fc6 043d a61c 223e b75b dbbc
00000130: 9940 a9bd bc2b eabd 0e0a 17bd 8d8e 8f3d
00000140: b211 35bd 8ace 6fbc a872 dabc 9b15 0dbd
00000150: e0ad d83d f149 8b3d c484 743d df60 e33d
00000160: 33e7 883c 6ff6 49be ed1d 01bd 42c9 28bd
00000170: 1031 d83c 3fcc 233d f236 d1bc 6eb2 00be
00000180: 2086 a73d 63df edbd 0658 8dbd 42a7 51be
00000190: e9da fe3c 8f35 bf3d 9e95 383e cf7d b43c
000001a0: 858c 48be 249e d23d e251 1dbe d4e1 643d
000001b0: 9e6f 00be ec82 b7bd 138e afbd a2f4 8ebc
000001c0: 5870 313c 8381 653d fad9 de3d a129 e73c
000001d0: c347 11bd add4 5b3d d692 f7bc 43dc 86bd
000001e0: e11c 67bc 02bd b33d 2041 68bd 562f c43c
000001f0: e88f da3c b02e 193a 45a1 f8bd 552c 40bd
00000200: 849b 073c ffb5 c03d ae87 b03d 3811 123e
00000210: 9925 cd3d 6476 83bc 404b a9bc 0aae e03c
00000220: 28ee df3d 8930 663e f719 183e 11e1 02be
00000230: 06b3 25be 1faf a13c f20c 32bd 36d5 243d
00000240: fc34 ab3d 0b8a 0bbd b8cc c93c 4f70 a83c
00000250: b19d 61bd f915 e03d e498 fc3c bfec a03d
00000260: dd41 f63b 25f4 22bd f2e9 05be b232 453d
00000270: 68e8 4ebd 7d68 e03c a830 44bd 233d 243d
00000280: 9e8c c7b9 d298 233e 1928 14be 0ba7 97bd
00000290: 5de4 b8bc ad0e 27be 63bf 92bd f18f b9bd
000002a0: 4b2e 243b dda6 4cbb a8a3 0f3b e2b6 d73d
000002b0: e05e 47be e002 b03d 0294 17bd b2fb 163d
000002c0: d2b2 a43c 7da1 3fbd 9ade e73c 598c da3c
000002d0: 8de5 53bd 842e eebd bff2 b0bd 65da 4a3c
000002e0: b5d0 e23d 6581 8d3c d76a 153d 28aa 933c
000002f0: 9979 c4bd 7aa0 14be c788 11bc 27d8 d43c
00000300: bfd2 13bd c5d9 e8bd d625 41bc 040e 57bd
00000310: c68d 36bd 9dfa 513d 9559 683e c45e 863c
00000320: f4c3 87bd 88fe 293b 8905 143d 5747 cabd
00000330: 84c4 9b3d 5334 27be 35e8 e73d 6208 2fbe
00000340: fad4 943c ee1a e8bd a430 7ebc b0c1 ae3c
00000350: 5e6f d63c 330d 87bd f9d2 463b c218 d93d
00000360: 51e8 cebd 1ea0 4fbd 79e5 81bc 9c38 40bc
00000370: 9bff 49bc 9714 3d3d 32f9 dabd 85d1 0bbe
00000380: 2d0e f43c 239b c0bd 81da 733d c241 e4bc
00000390: e51a 293e 3e73 87bc 784d 1abc 5ad1 08be
000003a0: 1058 a7bd 1c04 ab3c 0cb5 4dbe e431 243c
000003b0: 472c 263d 6d14 013e 9145 e8bd 35ef 803d
000003c0: b7f0 12be cfce 7c3d 4673 8abe 839e 33be
000003d0: de6e 79bd a78d 733c 4c76 883e 1ea0 743b
000003e0: 8834 d13d 33ca 2dbe 9f20 713e 798e a43e
000003f0: 8358 afbd de51 82bd 7919 283b 7b8a 083e

mlp_extractor.policy_net.0.bias f4 [64]
-0.029942209 -0.049475446 -0.03252345 0.024738755 0.027178796 -0.033265553 -0.015199498 -0.029172981
-0.014235234 -0.06132553 -0.033371866 -0.03886133 -0.0027830615 0.035549335 -0.030114219 -0.03392392
-0.034536898 -0.014899775 0.10608118 -0.008396202 0.048584484 0.02445857 0.025037142 -0.046744537
-0.00969898 -0.001717763 -0.026401237 0.044430476 -0.04247845 -0.030440837 0.034065157 0.037360676
0.049411204 0.055474296 0.0996352 0.0012496168 0.0372642 0.03272921 0.09707778 -0.045805622
-0.04073967 0.03508231 -0.048049524 -0.0031043699 0.004699727 -0.027620487 0.039716303 -0.014042558
-0.12883945 0.024892146 0.025149278 -0.11733857 -0.07197487 -0.083226815 -0.051179186 -0.018807344
0.0043935017 -0.001232905 0.028253913 0.026738243 0.0049297516 0.03352288 -0.017691633 -0.030335555
00000000: 5d49 f5bc c4a6 4abd 4f37 05bd eea8 ca3c
00000010: 11a6 de3c 7641 08bd 5107 79bc 2dfc eebc
00000020: e63a 69bc 7b30 7bbd f0b0 08bd 0f2d 1fbd
00000030: 0664 36bb 2e9c 113d 18b2 f6bc cff3 0abd
00000040: 9076 0dbd 301e 74bc 1741 d93d 3990 09bc
00000050: 8600 473d 575d c83c b11a cd3c 3377 3fbd
00000060: 78e8 1ebc 9026 e1ba 6847 d8bc bbfc 353d
00000070: e2fd 2dbd 105f f9bc e887 0b3d 8207 193d
00000080: 6763 4a3d 0439 633d 8a0d cc3d 2fca a33a
00000090: 59a2 183d 100f 063d b7d0 c63d ad9e 3bbd
000000a0: a4de 26bd 78b2 0f3d 94cf 44bd af72 4bbb
000000b0: 2b00 9a3b 5c44 e2bc 90ad 223d c212 66bc
000000c0: 7dee 03be 9dea cb3c dc05 ce3c 344f f0bd
000000d0: 9067 93bd d272 aabd 44a1 51bd dc11 9abc
000000e0: 5df7 8f3b 6d99 a1ba c074 e73c 290a db3c
000000f0: c189 a13b 4a4f 093d 0bee 90bc 4582 f8bc

mlp_extractor.policy_net.2.weight f4 [64, 64]
0.035661425 0.033820026 -0.19791749 -0.40486515 0.032807615 0.17296141 0.02582252 0.12098788
0.009241287 0.10100631 0.09811046 0.02077619 0.2515167 -0.49453533 -0.33703706 0.23651262
0.2529995 0.18809505 -0.24549863 0.26681197 -0.09442686 -0.08671325 -0.17545778 -0.0716489
0.14960307 -0.002214647 -0.08376691 0.1711562 0.17651677 -0.10707349 -0.07258243 -0.27116096
-0.4061502 0.22766949 0.15410173 0.18578078 -0.3612158 0.079538114 0.03958521 0.32209393
0.01618927 0.22702108 0.270436 -0.16461785 -0.2138014 -0.0519308 0.06341605 0.030293282
-0.18255414 -0.21284504 -0.2790872 -0.06502122 0.23249502 0.2654846 0.14812793 -0.08922495
-0.06497504 -0.021629062 -0.25708887 -0.1822961 -0.3592633 -0.40710592 0.21865705 -0.03306663
-0.22397402 0.18371648 0.17186947 -0.009199653 -0.13711815 0.003754464 0.39765316 -0.030663583
-0.05332605 -0.0246941 0.30607018 -0.15668519 -0.27344576 -0.004264843 0.21606165 0.08687329
-0.044996675 0.26293296 0.23989315 0.15841277 0.034713406 -0.5248444 0.14523964 -0.26541007
-0.07263237 -0.1759303 -0.19018212 -0.09253689 -0.21791397 0.049606945 0.10899149 -0.2053678
0.0074756993 -0.363083 -0.02456964 0.24175687 -0.23071876 0.33263075 -0.16338232 0.05192875
0.24853702 -0.16038544 -0.06100274 -0.22345132 -0.08069742 -0.30101973 0.08873144 0.13920803
0.24451233 -0.17918281 -0.15115225 -0.093255036 0.1894504 -0.13661249 -0.31667578 0.09028285
-0.09853584 0.12892252 0.23437762 -0.21975087 0.25673693 -0.12407051 -0.16495802 -0.23148677
0.401139 -0.015921032 0.16265334 -0.27023306 0.16740568 0.061646312 0.0053387214 -0.08934964
-0.13560757 -0.23617226 -0.06474495 0.3714571 -0.3972049 -0.05733617 -0.08349764 0.2166095
-0.11963073 0.14538127 0.097541586 -0.03251738 0.07373361 0.052347176 -0.1694337 -0.2981029
0.107387066 0.18609862 -0.11846318 -0.21641617 0.171037 -0.117570445 0.1437295 0.09984708
0.029644897 0.04411232 0.09925709 0.2172835 -0.26681182 -0.10220004 -0.300505 0.23142229
0.038067468 -0.0053789937 -0.0127258925 0.046080507 0.25021216 0.18956691 -0.03204551 0.027467651
0.28692713 0.16366246 -0.21887377 0.39545146 -0.1037137 0.13988744 0.099790774 0.1377207
-0.029627273 0.24938615 0.28755257 -0.13434012 0.30515808 0.09114433 0.221314 0.12327429
-0.17511123 -0.26047903 -0.13153726 -0.07333857 -0.1340025 -0.1325076 0.3676042 -0.15909752
0.089007586 -0.2921036 0.031150302 -0.2929078 0.05129934 -0.28963095 -0.0051464243 0.26684153
-0.43443856 -0.34993982 0.12779506 -0.18086506 -0.022017447 -0.065482266 -0.0842174 -0.08164361
0.05604266 0.21991722 -0.2666444 0.24215278 -0.4603254 0.101661645 0.03236054 0.35162076
-0.20430091 -0.07803002 0.010449267 -0.124109745 -0.047600996 -0.3507826 0.03420291 -0.30027306
-0.016187472 0.17176995 -0.02152127 0.037056323 -0.020199107 -0.005423948 0.28147462 -0.20821737
-0.20969231 0.009921286 0.115367964 0.12220876 -0.27395058 -0.07748106 0.09956907 0.04559756
-0.12758544 0.056120187 0.16190457 0.068554856 -0.009150186 0.15162855 -0.040589325 -0.094644904
00000000: b711 123d de86 0a3d e2aa 4abe 7c4a cfbe
00000010: 4761 063d cc1c 313e c089 d33c 7ec8 f73d
00000020: c468 173c 65dc ce3d 23ee c83d d432 aa3c
00000030: ccc6 803e bc33 fdbe 1f90 acbe 5d30 723e
00000040: 2789 813e fd9b 403e fe63 7bbe 949b 883e
00000050: df62 c1bd b796 b1bd 34ab 33be a9bc 92bd
00000060: 8c31 193e 9c23 11bb fc8d abbd 9243 2f3e
00000070: d0c0 343e 5949 dbbd 19a6 94bd 9cd5 8abe
00000080: ebf2 cfbe 3122 693e d8cc 1d3e 513d 3e3e
00000090: 47f1 b8be e1e4 a23d 1a24 223d 7fe9 a43e
000000a0: 5c9f 843c 3778 683e 9676 8a3e 9591 28be
000000b0: c1ee 5abe 64b5 54bd 46e0 813d 9e29 f83c
000000c0: 79ef 3abe 0df4 59be 84e4 8ebe d829 85bd
000000d0: 2d13 6e3e 99ed 873e d9ae 173e 92bb b6bd
000000e0: a211 85bd 6e2f b1bc 27a1 83be d4ab 3abe
000000f0: 5cf1 b7be 3070 d0be a2e7 5f3e e070 07bd
00000100: 7259 65be 2c20 3c3e 8dfe 2f3e 24ba 16bc
00000110: b368 0cbe 740d 763b 3299 cb3e 3232 fbbc
00000120: 6b6c 5abd 484b cabc 3bb5 9c3e 1572 20be
00000130: 1501 8cbe 19c0 8bbb 443f 5d3e a0ea b13d
00000140: 6f4e 38bd 269f 863e 8da6 753e f536 223e
00000150: a52f 0e3d 345c 06bf b3b9 143e d4e3 87be
00000160: 48c0 94bd 1327 34be 1abf 42be fb83 bdbd
00000170: d724 5fbe a730 4b3d ee36 df3d f04b 52be
00000180: b6f6 f43b 04e6 b9be 4546 c9bc 1d8f 773e
00000190: 8a41 6cbe 944e aa3e b24d 27be 3eb3 543d
000001a0: 7d80 7e3e 153c 24be 02de 79bd 6cd0 64be
000001b0: b044 a5bd 421f 9abe d4b8 b53d 8d8c 0e3e
000001c0: 7161 7a3e b37b 37be a8c7 1abe 7ffc bebd
000001d0: 49ff 413e 25e4 0bbe 5423 a2be 37e6 b83d
000001e0: 29cd c9bd 4404 043e b000 703e 5f06 61be
000001f0: 0673 833e ae18 febd c1ea 28be de0a 6dbe
00000200: 1762 cd3e d36c 82bc 998e 263e fd5b 8abe
00000210: 656c 2b3e d880 7c3d 71f0 ae3b f2fc b6bd
00000220: b6dc 0abe 24d7 71be 0099 84bd a02f be3e
00000230: 715e cbbe 55d9 6abd d000 abbd e1ce 5d3e
00000240: f500 f5bd d4de 143e e2c3 c73d f230 05bd
00000250: a601 973d fe69 563d 0780 2dbe f1a0 98be
00000260: c0ed db3d a390 3e3e d39c f2bd 339c 5dbe
00000270: 5324 2f3e c6c8 f0bd d32d 133e a07c cc3d
00000280: dbd9 f23c 1faf 343d 4d47 cb3d 917f 5e3e
00000290: 8f9b 88be 414e d1bd cbdb 99be f7f9 6c3e
000002a0: a2ec 1b3d 4542 b0bb 4380 50bc eabe 3c3d
000002b0: cf1b 803e d41d 423e 2742 03bd d703 e13c
000002c0: 1de8 923e 2297 273e 7220 60be 9d78 ca3e
000002d0: d967 d4bd a73e 0f3e 1b5f cc3d a806 0d3e
000002e0: e5b4 f2bc 155f 7f3e 173a 933e 7590 09be
000002f0: ae3d 9c3e e1a9 ba3d 23a0 623e 3b77 fc3d
00000300: 5c50 33be 825d 85be b4b1 06be 8832 96bd
00000310: f437 09be 13b0 07be 9e36 bc3e 76ea 22be
00000320: 9c49 b63d 9a8e 95be eb2e ff3c 03f8 95be
00000330: 421f 523d 824a 94be 56a3 a8bb 749f 883e
00000340: bb6e debe 502b b3be b5dc 023e b134 39be
00000350: ef5d b4bc 911b 86bd 2c7a acbd c434 a7bd
00000360: fd8c 653d fb31 613e 9d85 88be e6f6 773e
00000370: c5af ebbe fb33 d03d 7c8c 043d a307 b43e
00000380: 4234 51be 34ce 9fbd 6733 2b3c 402d febd
00000390: 43f9 42bd c799 b3be 5a18 0c3d 64bd 99be
000003a0: 979b 84bc 76e4 2f3e 604d b0bc 5fc8 173d
000003b0: 9978 a5bc 60bb b1bb 711d 903e ef36 55be
000003c0: 95b9 56be e48c 223c 0a46 ec3d 9648 fa3d
000003d0: 4043 8cbe 64ae 9ebd deea cb3d 82c4 3a3d
000003e0: c2a5 02be 48de 653d 50ca 253e 7d66 8c3d
000003f0: a9ea 15bc 8444 1b3e fe40 26bd 30d5 c1bd

mlp_extractor.policy_net.2.bias f4 [64]
-0.03532167 -0.021917569 -0.05755811 0.061855935 -0.041316204 -0.032588318 -0.030609688 0.055764344
0.018603772 0.020538615 0.015983516 -0.035118666 0.053757265 6.07471e-05 0.045229282 -0.07154114
0.04864321 -0.018035766 -0.06327372 0.069964804 -0.017134786 -0.015074871 -0.011838358 0.031447947
0.046026208 0.027375745 0.0386204 -0.045229714 0.071507074 -0.055896897 0.03744331 0.019560635
0.07620089 0.04317857 0.03876244 0.08685751 0.07955956 0.0069367313 0.07302115 0.029747209
0.08736059 0.074639805 -0.048562955 -0.016063044 -0.0011181156 -0.008111235 0.009063052 0.042024456
-0.07847176 0.036213282 -0.0026945018 0.058695275 0.0076559056 -0.041109923 -0.023332477 0.053860668
0.0062459596 -0.03998613 0.09201684 0.072004646 0.08469515 -0.059924256 -0.017489636 0.046351165
00000000: 75ad 10bd 798c b3bc 0ec2 6bbd a65c 7d3d
00000010: 2e3b 29bd 547b 05bd 2bc1 fabc 2769 643d
00000020: f066 983c 9940 a83c ddef 823c 97d8 0fbd
00000030: 9430 5c3d b4ca 7e38 5742 393d 2984 92bd
00000040: 1a3e 473d bebf 93bc a795 81bd b549 8f3d
00000050: 405e 8cbc 97fc 76bc acf5 41bc 90cf 003d
00000060: fa85 3c3d 1943 e03c 6d30 1e3d cb42 39bd
00000070: 4d72 923d 25f4 64bd 285e 193d a03d a03c
00000080: 360f 9c3d 03dc 303d 5dc5 1e3d 5ae2 b13d
00000090: 1ff0 a23d 854d e33b 1d8c 953d 6bb0 f33c
000000a0: 1cea b23d c1dc 983d f3e9 46bd a596 83bc
000000b0: bc8d 92ba fce4 04bc 327d 143c d621 2c3d
000000c0: cdb5 a0bd 6154 143d 3d96 30bb 756a 703d
000000d0: 64de fa3b e162 28bd c023 bfbc 019d 5c3d
000000e0: e8aa cc3b 7fc8 23bd 5373 bc3d 2c77 933d
000000f0: a774 ad3d 2373 75bd 6d46 8fbc b8da 3d3d

mlp_extractor.value_net.0.weight f4 [64, 246]
-0.039171018 -0.037416235 0.18001921 -0.29031575 0.2917659 0.1571132 -0.083537355 0.059067592
-0.2334856 -0.054932993 0.017710332 0.09281944 -0.14387606 0.0001973749 -0.04557442 0.046314046
-0.021090517 0.04234114 -0.067073144 -0.07736879 -0.07392315 0.07681085 0.19586247 -0.08492322
-0.08110968 0.023737619 -0.0687151 -0.033033397 -0.032146372 -0.09869492 -0.0883708 -0.015807046
-0.12404699 -0.049741764 0.06368862 -0.16956738 -0.09508194 -0.0069340975 -0.06272253 -0.05377522
-0.0023389577 -0.025444204 -0.13830955 -0.0049881213 -0.08893393 -0.057966232 -0.12260083 0.07663189
-0.09404358 0.10649578 -0.11707531 -0.058221474 -0.041181084 0.057425994 0.064405255 -0.0044646407
-0.035970706 0.11281191 -0.17625405 -0.09104589 -0.008664519 0.041858897 -0.01876754 -0.1055851
0.08330351 -0.075624704 -0.17247409 0.014471011 -0.009489782 0.029200016 0.058716837 -0.015215247
0.06053196 0.025313718 0.007448056 -0.11975204 -0.05359183 -0.0991351 0.0147071425 -0.061113484
-0.12160431 -0.0026394268 0.1754336 0.021317573 0.07421588 0.042380717 -0.09461692 -0.2807781
0.13255848 -0.08283015 -0.17267531 0.013824492 0.09841207 -0.08923052 0.022217562 -0.026005311
0.10071981 -0.0013335247 -0.07751885 -0.01568278 0.02790046 0.011443011 0.05474335 0.02815834
-0.043884985 0.07955022 -0.09973697 -0.12507977 0.0051655876 0.02868472 -0.048878755 -0.16036715
-0.003595457 -0.27057645 0.021283267 0.08845396 -0.09384953 -0.063647166 0.1188918 0.007248982
-0.0076185954 0.013907133 0.039844394 -0.1689058 -0.15073738 0.15714486 -0.074092954 -0.014408253
-0.13472292 0.018945623 -0.02625929 -0.098746136 -0.019597782 0.24135643 0.0014303701 0.06317837
-0.009593729 0.0068507916 -0.07905446 8.1718055e-05 0.070518315 -0.122565106 -0.0011089583 0.04996592
-0.07711267 0.04503526 0.031774 -0.14826426 0.033309504 -0.15078822 -0.046753623 -0.1666616
0.036593582 0.011043452 0.10619912 -0.016697729 0.040961955 -0.0012787766 -0.11059783 -0.11521072
0.07685412 -0.09234372 -0.08117674 0.051413868 -0.004660164 0.051803134 -0.04596632 -0.05401438
-0.06272446 0.015061268 -0.1766957 0.08869998 -0.07442691 0.009683692 0.014227359 -0.0008630146
0.073805 -0.18290949 -0.024536045 0.08689997 -0.07471038 0.06405898 0.005393913 0.036022358
-0.093534596 -0.10403814 -0.1694999 0.025567703 0.19723803 -0.22767423 -0.06938332 0.0058923922
-0.027200855 -0.04999674 -0.015199468 -0.08503602 0.0047786986 -0.05020765 0.018273255 -0.118583344
-0.04199641 0.16267957 -0.09741045 0.08955522 -0.00064622087 0.014987744 -0.12331314 -0.03322847
0.072668515 0.03691266 0.13293593 -0.01379066 -0.015122489 0.03333737 -0.06731323 -0.32887155
-0.2408518 -0.118240096 -0.062470734 -0.11142562 0.015467686 -0.09578879 -0.06544666 0.000245927
0.21418639 -0.049070362 0.032338645 -0.10322546 -0.13539784 -0.046991546 -0.10617257 -0.14381576
0.058589097 0.030296484 -0.04629091 -0.10417856 -0.056478057 -0.010345855 -0.11101467 -0.14430964
-0.015137744 0.016599163 -0.12889104 -0.05693568 -0.13531326 -0.0776511 0.03304397 0.037158385
-0.038789384 -0.110318266 0.14036395 -0.16546853 -0.10578156 -0.25924262 -0.06569419 -0.025584213
00000000: ca71 20bd c441 19bd f556 383e 44a4 94be
00000010: 5762 953e 48e2 203e a215 abbd dcf0 713d
00000020: d916 6fbe 6b01 61bd 4215 913c 1e18 be3d
00000030: 3f54 13be 6cf6 4e39 3eac 3abd ccb3 3d3d
00000040: 05c6 acbc e76d 2d3d a55d 89bd 8773 9ebd
00000050: 0565 97bd 024f 9d3d 2c90 483e 3aec adbd
00000060: d51c a6bd 6575 c23c 81ba 8cbd 074e 07bd
00000070: eaab 03bd 9020 cabd c0fb b4bd c77d 81bc
00000080: 590c febd 05be 4bbd 2e6f 823d 12a3 2dbe
00000090: 52ba c2bd 6d37 e3bb ab74 80bd 6843 5cbd
000000a0: 3349 19bb 5d70 d0bc 05a1 0dbe 6573 a3bb
000000b0: fe22 b6bd 006e 6dbd 2516 fbbd 2ef1 9c3d
000000c0: ec99 c0bd 761a da3d 2ec5 efbd a479 6ebd
000000d0: 7fad 28bd 8537 6b3d e7e6 833d 1f4c 92bb
000000e0: 0556 13bd ee09 e73d f17b 34be 4476 babd
000000f0: a0f5 0dbc 3c74 2b3d 62be 99bc 003d d8bd
00000100: 089b aa3d 20e1 9abd 0c9d 30be d217 6d3c
00000110: 087b 1bbc df34 ef3c 1181 703d 5f49 79bc
00000120: 5cf0 773d b75e cf3c d20e f43b 8f40 f5bd
00000130: 1b83 5bbd 5807 cbbd 3af6 703c 2252 7abd
00000140: ae0b f9bd 3cfa 2cbb dea4 333e 31a2 ae3c
00000150: 7ffe 973d 6797 2d3d 84c6 c1bd 26c2 8fbe
00000160: 69bd 073e dba2 a9bd ccd1 30be 1f80 623c
00000170: 448c c93d 7ebe b6bd 9b01 b63c 1709 d5bc
00000180: 3046 ce3d aac9 aeba 34c2 9ebd 2c79 80bc
00000190: 818f e43c 787b 3b3c 903a 603d 52ac e63c
000001a0: bec0 33bd 3aeb a23d e642 ccbd e914 00be
000001b0: 1744 a93b 38fc ea3c 1735 48bd 4937 24be
000001c0: c2a1 6bbb ff88 8abe 3f5a ae3c 5a27 b53d
000001d0: 2f34 c0bd 7259 82bd 8b7d f33d de88 ed3b
000001e0: 69a5 f9bb beda 633c e033 233d a4f5 2cbe
000001f0: e65a 1abe 95ea 203e 0cbe 97bd 9810 6cbc
00000200: cef4 09be da33 9b3c b91d d7bc 6a3b cabd
00000210: 878b a0bc 2426 773e 427b bb3a a963 813d
00000220: 042f 1dbc 9b7c e03b 4ee7 a1bd 0c60 ab38
00000230: e86b 903d 6a03 fbbd 775a 91ba 11a9 4c3d
00000240: 3fed 9dbd e576 383d 7425 023d 96d2 17be
00000250: 8c6f 083d 3a68 1abe ba80 3fbd 57a9 2abe
00000260: 27e3 153d 98ef 343c ed7e d93d adc9 88bc
00000270: b9c7 273d 9f9c a7ba 1d81 e2bd 99f3 ebbd
00000280: b165 9d3d b41e bdbd fe3f a6bd 5997 523d
00000290: 4ab4 98bb 862f 543d 2e47 3cbd 2f3e 5dbd
000002a0: af75 80bd 89c3 763c b8ef 34be 56a8 b53d
000002b0: 236d 98bd 59a8 1e3c de19 693c ee3b 62ba
000002c0: 1327 973d a04c 3bbe d1ff c8bc 9df8 b13d
000002d0: c101 99bd 5b31 833d 6cbf b03b 2e8c 133d
000002e0: 118f bfbd f311 d5bd 6291 2dbe 5c73 d13c
000002f0: c4f8 493e 6f23 69be d818 8ebd f814 c13b
00000300: 54d4 debc 62c9 4cbd 3007 79bc 5d27 aebd
00000310: a196 9c3b 89a6 4dbd cbb1 953c d3db f2bd
00000320: 6d04 2cbd 7995 263e 217f c7bd ba68 b73d
00000330: 2667 29ba 288f 753c 998b fcbd 931a 08bd
00000340: 3bd3 943d bb31 173d 5b20 083e 38f2 61bc
00000350: 51c4 77bc c48c 083d 85db 89bd da61 a8be
00000360: dba1 76be dd27 f2bd 50e1 7fbd 1e33 e4bd
00000370: 2d6c 7d3c ea2c c4bd e608 86bd c3ef 8039
00000380: ad53 5b3e 01fe 48bd 8775 043d df67 d3bd
00000390: bba5 0abe 357a 40bd 0171 d9bd 7044 13be
000003a0: 1ffb 6f3d 5530 f83c 8a9b 3dbd 925b d5bd
000003b0: 8955 67bd a981 29bc a95b e3bd e8c5 13be
000003c0: 4d04 78bc f8fa 873c 03fc 03be 6335 69bd
000003d0: 8f8f 0abe 8a07 9fbd 1d59 073d 6433 183d
000003e0: 9ee1 1ebd 8bee e1bd 91bb 0f3e 9570 29be
000003f0: 01a4 d8bd 73bb 84be ad8a 86bd fc95 d1bc

mlp_extractor.value_net.0.bias f4 [64]
-0.21544385 -0.112784386 -0.021609677 -0.19902195 -0.07022029 0.08486144 -0.07560358 0.10655912
0.18963741 0.048814725 0.2697992 -0.25056034 -0.15034537 0.05259435 0.11454493 -0.22572665
-0.020425072 0.06334373 -0.15493707 0.109050885 -0.12888539 -0.092065305 -0.11308424 0.10663926
0.14425562 0.156077 -0.15749526 0.12616275 -0.03679596 0.10741224 -0.057193425 0.092632905
0.17497703 0.08097164 -0.14959715 0.11717652 -0.05862629 -0.24503309 -0.092333786 0.060911793
-0.2165974 -0.23251182 0.09767455 -0.23181832 -0.122481816 0.18413904 -0.1646851 -0.05906828
0.08750576 -0.18288386 0.3205132 -0.07922084 -0.04652537 -0.23122849 0.19984429 -0.040702853
0.10613813 -0.22511281 -0.24035813 0.18075113 -0.09144283 0.14334242 -0.040308658 0.07459776
00000000: 509d 5cbe 80fb e6bd c706 b1bc 69cc 4bbe
00000010: a8cf 8fbd d6cb ad3d 0dd6 9abd ab3b da3d
00000020: 4f30 423e f3f1 473d 1f23 8a3e 7249 80be
00000030: 23f4 19be 2c6d 573d 8896 ea3d e324 67be
00000040: 7b52 a7bc 5cba 813d d3a7 1ebe 1256 df3d
00000050: 88fa 03be bc8c bcbd b698 e7bd af65 da3d
00000060: bfb7 133e a6d2 1f3e 7046 21be cf30 013e
00000070: 5cb7 16bd f3fa db3d a743 6abd 52b6 bd3d
00000080: 2e2d 333e 76d4 a53d ff2f 19be 3efa ef3d
00000090: 1f22 70bd f4e9 7abe 7f19 bdbd a57e 793d
000000a0: b5cb 5dbe 9417 6ebe 9809 c83d c861 6dbe
000000b0: bfd7 fabd f28e 3c3e 36a3 28be 95f1 71bd
000000c0: 3836 b33d e845 3bbe 4e1a a43e 893e a2bd
000000d0: 6391 3ebd 29c7 6cbe fba3 4c3e 09b8 26bd
000000e0: f35e d93d f983 66be 7120 76be d316 393e
000000f0: 6146 bbbd 5bc8 123e b11a 25bd b6c6 983d

mlp_extractor.value_net.2.weight f4 [64, 64]
0.097932845 0.008551038 0.13419816 0.60575753 0.32272944 -0.12232673 0.08099749 -0.2879399
-0.094929405 -0.3140543 -0.2428095 -0.006117805 0.040647887 0.18617828 0.12424649 0.0667915
0.31139407 -0.033668406 -0.14221253 0.008093935 0.25211507 -0.04119828 0.2857456 0.15865959
-0.045146927 -0.32437378 -0.07646609 -0.23045692 0.17222789 -0.28709698 0.24265848 -0.2960716
-0.33307657 -0.2554828 0.033551365 -0.0047235647 0.3761843 -0.031471018 -0.03394438 0.16216174
0.21225859 -0.056176964 -0.16163811 0.5175385 0.25914907 -0.081948094 0.18759611 0.65356994
-0.2410361 0.20132893 -0.036217265 -0.29935375 -0.037402846 0.17477332 -0.29665926 0.13041387
-0.018537631 0.18008019 -0.06793098 -0.09999246 0.25376087 -0.04629086 0.061614193 -0.10373336
-0.22928236 -0.13796271 0.2990162 -0.16355011 -0.09301519 0.023438992 -0.2987224 -0.13193892
-0.054251302 -0.16538802 -0.082274236 0.036699556 0.07405845 -0.15790917 -0.20248939 -0.18565173
-0.25233832 0.39771286 -0.4455007 0.083476126 -0.2175002 -0.326547 -0.051692925 0.23677307
0.1773809 0.26211384 0.15738551 -0.27370107 0.030231046 0.13369413 -0.018747717 0.0996835
-0.015066721 0.1765772 -0.22506586 -0.023382528 -0.113469124 -0.26561832 0.24916063 0.097117044
0.038200878 -0.027813992 -0.17608984 -0.3482131 -0.017300261 0.0030386518 -0.13104768 -0.35667455
0.5193013 -0.2757645 0.06426598 -0.11840517 -0.37834322 -0.11063771 -0.004597792 -0.27277172
-0.09889312 -0.5111252 -0.176671 -0.051045984 0.023268236 0.12490852 -0.2197631 0.21148564
0.36692587 0.051807668 -0.06030469 -0.07934365 0.15799981 -0.31564316 0.10335312 0.01307966
-0.1781897 0.0058350675 -0.106024995 0.20126104 -0.049345277 0.06365336 0.1907991 0.23387966
0.014937048 -0.066639505 -0.07679697 -0.09631039 0.22050838 0.25652328 0.15762474 -0.47834644
0.15996145 -0.09585001 0.10766225 -0.11612373 0.28981832 -0.19818127 0.37402886 -0.08102201
-0.15775676 -0.30543268 0.3355592 0.062733784 0.6225041 -0.08838953 0.16509837 -0.056658078
0.21126592 0.098500565 -0.025342869 0.14343227 -0.08383163 0.19854467 0.24659657 -0.16938889
-0.11360689 -0.01792799 -0.1777898 0.17053032 -0.3454744 -0.12917219 -0.20090894 0.23884317
-0.3134656 0.2916848 0.1414436 0.1794533 0.25163466 -0.1765351 0.022412527 -0.44999057
0.34313405 0.37681252 0.1712898 0.08686197 0.24054371 -0.16403338 0.054845374 -0.13529858
0.13851301 -0.08937785 0.021022666 0.047866076 0.15725936 -0.21142878 0.12767284 0.004344284
0.15536568 -0.14008594 0.17141977 0.05235842 0.4641723 0.26371574 -0.26194325 -0.14941716
0.08885447 0.050243188 0.21948518 0.09326383 0.21305324 -0.19146898 0.4304371 -0.21212186
-0.42757368 -0.051746108 0.54565835 -0.39509478 0.17994873 0.09577104 -0.33426565 -0.05029025
0.16593833 0.044973336 -0.53815526 0.17289111 0.34529075 -0.008668231 0.1663542 0.000898967
-0.27235356 0.075620025 -0.27369577 0.18297385 0.35057274 0.39028803 -0.17677544 0.06838135
-0.022276713 -0.06803037 0.08374573 -0.09888772 0.14697464 0.118246466 -0.10597111 0.02687474
00000000: 0491 c83d a719 0c3c 3e6b 093e ed12 1b3f
00000010: cb3c a53e 7086 fabd 03e2 a53d dc6c 93be
00000020: 596a c2bd bacb a0be 0ea3 78be de77 c8bb
00000030: 667e 263d 85a5 3e3e f274 fe3d fbc9 883d
00000040: 0b6f 9f3e e2e7 09bd 29a0 11be 6d9c 043c
00000050: 3a15 813e 87bf 28bd 3f4d 923e a977 223e
00000060: fceb 38bd 5214 a6be 419a 9cbd e6fc 6bbe
00000070: 825c 303e 60fe 92be 777b 783e b296 97be
00000080: 0389 aabe a4ce 82be 286d 093d 22c8 9abb
00000090: 3b9b c03e c1e7 00bd 4309 0bbd ba0d 263e
000000a0: 515a 593e d119 66bd 7684 25be 677d 043f
000000b0: 30af 843e 67d4 a7bd 3219 403e 5c50 273f
000000c0: 2bd2 76be 2c29 4e3e 8e58 14bd e544 99be
000000d0: ba33 19bd c7f7 323e b9e3 97be 378b 053e
000000e0: 3bdc 97bc f166 383e 661f 8bbd d9c8 ccbd
000000f0: f2ec 813e 7c9b 3dbd 2a5f 7c3d 2872 d4bd
00000100: ffc8 6abe 1946 0dbe a718 993e ae79 27be
00000110: bf7e bebd 2103 c03c 24f2 98be ff1a 07be
00000120: 9d36 5ebd 7a5b 29be 657f a8bd 4652 163d
00000130: f5ab 973d f1b2 21be 6159 4fbe 7d1b 3ebe
00000140: 7d32 81be 05a1 cb3e ab18 e4be 88f5 aa3d
00000150: 5fb8 5ebe 2b31 a7be f6bb 53bd a474 723e
00000160: 57a3 353e c933 863e ab29 213e 8c22 8cbe
00000170: 19a7 f73c 1de7 083e d094 99bc dd26 cc3d
00000180: 68da 76bc a7d0 343e aa77 66be b78c bfbc
00000190: 8062 e8bd 20ff 87be f723 7f3e 4de5 c63d
000001a0: 8678 1c3d 2bda e3bc e550 34be fd48 b2be
000001b0: 47b9 8dbc 1e24 473b 5d31 06be 0c9e b6be
000001c0: eef0 043f 0131 8dbe e29d 833d 697e f2bd
000001d0: 34b6 c1be 0696 e2bd 13a9 96bb bca8 8bbe
000001e0: 7a88 cabd 1ad9 02bf 3ee9 34be 9815 51bd
000001f0: 079d be3c 0ad0 ff3d 9409 61be b18f 583e
00000200: b5dd bb3e 4734 543d 0d02 77bd ec7e a2bd
00000210: b4ca 213e fb9b a1be cdaa d33d 124c 563c
00000220: 5c77 36be 1834 bf3b a223 d9bd 6017 4e3e
00000230: 461e 4abd b15c 823d d760 433e 267e 6f3e
00000240: 85ba 743c 4b7a 88bd bb47 9dbd 623e c5bd
00000250: f3cc 613e 0557 833e 6168 213e d3e9 f4be
00000260: efcc 233e 034d c4bd 077e dc3d 47d2 edbd
00000270: 1163 943e 08f0 4abe b680 bf3e deee a5bd
00000280: fd8a 21be ac61 9cbe 6ace ab3e 927a 803d
00000290: 6e5c 1f3f 9205 b5bd 8c0f 293e 4d12 68bd
000002a0: 1856 583e aaba c93d d99b cfbc e9df 123e
000002b0: ebaf abbd 4b4f 4b3e d083 7c3e 4874 2dbe
000002c0: bbaa e8bd b8dd 92bc 880e 36be 809f 2e3e
000002d0: 05e2 b0be b745 04be 13bb 4dbe 4e93 743e
000002e0: 907e a0be b657 953e 97d6 103e 9bc2 373e
000002f0: 42d6 803e 9ec5 34be 7a9a b73c 2a65 e6be
00000300: 44af af3e 92ed c03e 9866 2f3e b0e4 b13d
00000310: 1751 763e 5ef8 27be 8ba5 603d b68b 0abe
00000320: 5bd6 0d3e bc0b b7bd ba37 ac3c 380f 443d
00000330: 9908 213e c980 58be abbc 023e 7f5a 8e3b
00000340: 2e18 1f3e b072 0fbe aa88 2f3e c875 563d
00000350: fea7 ed3e c005 873e 6d1d 86be d000 19be
00000360: 55f9 b53d cdcb 4d3d b9c0 603e 1b01 bf3d
00000370: a12a 5a3e 7210 44be 4062 dc3e 7936 59be
00000380: f0ea dabe baf3 53bd 44b0 0b3f dd49 cabe
00000390: 7b44 383e 9b23 c43d de24 abbe 26fd 4dbd
000003a0: bdeb 293e f635 383d 8bc4 09bf 5e0a 313e
000003b0: f3c9 b03e 3205 0ebc c158 2a3e a7a8 6b3a
000003c0: ed71 8bbe acde 9a3d da21 8cbe 7f5d 3b3e
000003d0: 457e b33e d5d3 c73e 9f04 35be 850b 8c3d
000003e0: a77d b6bc 8253 8bbd e282 ab3d a585 cabd
000003f0: 8580 163e 342b f23d 6207 d9bd 6a28 dc3c

mlp_extractor.value_net.2.bias f4 [64]
-0.09979791 0.060480464 -0.10443686 -0.10981489 0.005737578 -0.053821195 -0.047950115 0.053763397
-0.009917077 0.007898443 -0.037995495 -0.09829302 0.07199647 -0.048167307 0.03232232 0.0731089
-0.08733583 -0.08833963 -0.111247055 0.104688294 0.03348221 0.057681184 0.03540123 -0.03855998
0.059150238 -0.018927112 -0.10184542 0.07239359 0.046661723 0.038541928 -0.05037325 -0.025260698
-0.064703554 -0.025795234 0.029100792 -0.052937347 0.076187916 0.0765709 -0.10911148 0.054473095
-0.02157131 0.03306909 -0.05172962 0.06776244 -0.024527436 0.07775287 -0.051478483 0.13834052
0.13575757 0.10163151 0.04784405 -0.12125842 0.07756101 0.08565154 -0.036656212 -0.13318591
-0.030810313 0.04466073 -0.077015564 -0.019713387 -0.025584253 -0.08451491 -0.027509635 0.057853196
00000000: d962 ccbd 5dba 773d fee2 d5bd a1e6 e0bd
00000010: 4b02 bc3b 9d73 5cbd 5767 44bd 0237 5c3d
00000020: 3c7b 22bc 7968 013c 2aa1 1bbd da4d c9bd
00000030: e372 933d 154b 45bd 6964 043d 1eba 953d
00000040: 21dd b2bd 68eb b4bd 7fd5 e3bd d166 d63d
00000050: a424 093d 1b43 6c3d e100 113d 12f1 1dbd
00000060: 8547 723d 080d 9bbc 5594 d0bd 1743 943d
00000070: 5d20 3f3d 24de 1d3d 2e54 4ebd 86ef cebc
00000080: 4c83 84bd 8750 d3bc c964 ee3c d5d4 58bd
00000090: 6908 9c3d 34d1 9c3d d775 dfbd 2e1f 5f3d
000000a0: 51b6 b0bc 7473 073d 70e2 53bd 09c7 8a3d
000000b0: c3ed c8bc e63c 9f3d 1adb 52bd 23a9 0d3e
000000c0: 0804 0b3e 2e24 d03d 1ff8 433d 5656 f8bd
000000d0: 4fd8 9e3d 136a af3d d324 16bd e361 08be
000000e0: e965 fcbc 2bee 363d 56ba 9dbd f87d a1bc
000000f0: 1196 d1bc 2716 adbd e35b e1bc 79f7 6c3d

action_net.weight f4 [8, 64]
0.035903625 0.09338084 0.052144527 -0.045274515 0.048188746 0.09520369 0.058553163 -0.07874888
-0.15840578 -0.038158804 -0.046783425 0.016626872 -0.034205638 -0.0715055 -0.048212953 0.05485652
-0.08605817 0.044007704 0.04783931 -0.044145554 0.03456419 0.09173676 0.033542953 -0.0410445
-0.08959254 -0.034267336 -0.10863686 0.044075843 -0.053601183 0.046525367 0.037255935 -0.014319032
-0.060766418 -0.050593972 -0.06259531 -0.055224337 -0.0526909 -0.14569637 -0.03497573 -0.07478868
-0.04049677 -0.05737029 0.056301825 0.012656417 0.12151094 0.05651791 -0.10769557 -0.06388884
0.056012735 -0.045422494 0.11243605 -0.048510943 -0.062076554 0.054135792 0.0935275 -0.052768204
0.06278198 0.067306176 -0.06003032 -0.056303516 -0.055473775 0.0652133 0.033301517 -0.03838356
0.107675895 -0.07818402 -0.02044728 0.0029304286 0.074071154 0.051415794 0.0126371365 0.013351668
-0.09402534 -0.064422406 0.018638058 0.064994246 -0.0074213613 -0.028687488 0.004980656 0.030373732
-0.0035243588 -0.07320602 -0.005412656 0.002198794 0.02854014 0.026920939 -0.059706554 0.039231293
-0.08863823 -0.18349056 -0.0426824 -0.0004702666 -0.017756317 -0.01862455 -0.08312631 0.017773487
-0.017105544 -0.05943486 -0.007911849 -0.039962064 -0.0012557044 0.07575838 -0.0022576028 -0.037068546
2.9764415e-06 -0.017465776 0.03308302 -0.05079138 -0.050209153 0.04145867 0.03908538 -0.27929544
0.017937815 -0.003251749 -0.019609075 0.007052315 0.0052831224 -0.022598762 -0.038332287 0.017898772
0.056646083 0.041926127 -0.017609894 -0.00060504535 -0.01877902 0.0014014469 0.00080777594 -0.0061168447
0.07313004 0.040627744 0.05320071 -0.058145575 0.06463644 0.038408298 0.065006636 -0.0715472
-0.0540463 -0.07099942 -0.05028682 0.07929287 -0.04386131 -0.07717279 -0.06458768 0.061958645
-0.016876267 0.03230158 0.063529424 -0.06480042 0.02522672 0.05139799 0.063283175 -0.08825197
-0.024116991 -0.035341468 -0.033736706 0.05807599 -0.062396593 0.0652878 0.025830528 -0.081045546
-0.06738045 -0.0060284906 -0.05410557 -0.069765545 -0.04897687 -0.026424961 -0.0634108 -0.06725801
-0.0627745 -0.048147433 0.06858567 0.08683349 0.003503798 0.034960628 -0.0043597827 -0.02822392
0.060103998 -0.053802907 -0.05224437 -0.055129755 -0.054514557 0.0635751 0.05795698 -0.06114046
0.03316992 0.0641196 -0.058116283 -0.066622 -0.06759359 0.05396183 0.023180712 -0.06224515
0.1070039 0.1182581 -0.0002906399 -0.029136404 0.07192396 0.07475698 -0.019861564 0.00691427
0.08340829 0.083699755 -0.05024818 0.47023338 0.031899594 -0.073285505 0.0138279265 -0.00071467273
-0.0141569255 -0.12553975 0.00049143797 -0.009100519 -0.034707304 -0.06267259 -0.037085008 -0.01823556
-0.024061171 0.08031757 -0.10607847 -0.023189293 -0.0215248 -0.009448037 -0.25409043 0.04036212
0.007003971 -0.19984807 0.019825282 -0.0021268341 0.0024911098 0.013876846 0.025208762 0.08288318
-0.0009323769 0.0039225183 -0.039543796 -0.10091314 -0.04795026 0.056981333 0.021460665 -0.16146094
0.0033327925 0.0050092265 -0.2545497 0.014292625 0.19104306 0.006290695 0.0783165 0.0074269716
-0.28191236 0.042264324 -0.008280697 0.009270798 -0.008201814 0.025926543 0.013179499 0.0023201387
00000000: ae0f 133d 743e bf3d 8095 553d c571 39bd
00000010: 9061 453d 27fa c23d 71d5 6f3d 1847 a1bd
00000020: 2035 22be 684c 1cbd fa9f 3fbd 1435 883c
00000030: 361b 0cbd 7a71 92bd f27a 45bd 3bb1 603d
00000040: 443f b0bd 6c41 343d 27f3 433d f8d1 34bd
00000050: 2e93 0d3d 7ce0 bb3d 5664 093d 471e 28bd
00000060: 4b7c b7bd e85b 0cbd 017d debd df88 343d
00000070: ea8c 5bbd 6291 3e3d ae99 183d 609a 6abc
00000080: 35e6 78bd a03b 4fbd f831 80bd ea32 62bd
00000090: 6ad2 57bd 6e31 15be b642 0fbd cf2a 99bd
000000a0: f1df 25bd 1cfd 6abd be9c 663d dc5c 4f3c
000000b0: bada f83d 537f 673d 7f8f dcbd 27d8 82bd
000000c0: 9c6d 653d f00c 3abd df44 e63d 69b3 46bd
000000d0: fc43 7ebd 7ebd 5d3d 598b bf3d 7923 58bd
000000e0: d793 803d d2d7 893d 5ae2 75bd 849e 66bd
000000f0: 7838 63bd 8d8e 853d 2c67 083d 1438 1dbd
00000100: 2e85 dc3d f21e a0bd 0e81 a7bc 6f0c 403b
00000110: 9eb2 973d 5e99 523d fe0b 4f3c f4c0 5a3c
00000120: 5c90 c0bd e5ef 83bd d7ae 983c b41b 853d
00000130: e42e f3bb 0602 ebbc c534 a33b 55d2 f83c
00000140: eef8 66bb 0aed 95bd a65c b1bb a419 103b
00000150: 03cd e93c 4d89 dc3c dc8e 74bd feb0 203d
00000160: f687 b5bd f3e4 3bbe bed3 2ebd 1d8e f6b9
00000170: b275 91bc 8392 98bc 203e aabd b499 913c
00000180: ed20 8cbc f871 73bd b3a0 01bc 43af 23bd
00000190: 7396 a4ba 3627 9b3d 4af4 13bb 30d5 17bd
000001a0: e0be 4736 6314 8fbc 1082 073d 9f0a 50bd
000001b0: 1da8 4dbd 91d0 293d fe17 203d d0ff 8ebe
000001c0: 53f2 923c 4c1b 55bb 36a3 a0bc 1b17 e73b
000001d0: 0b1e ad3b 0a21 b9bc 5102 1dbd 72a0 923c
000001e0: b905 683d bbba 2b3d a042 90bc e89b 1eba
000001f0: 76d6 99bc c1b0 b73a edc0 533a d06f c8bb
00000200: 34c5 953d 4769 263d fde8 593d 0e2a 6ebd
00000210: 1c60 843d 0552 1d3d 3322 853d 5787 92bd
00000220: a75f 5dbd 2568 91bd 8df9 4dbd 4d64 a23d
00000230: eba7 33bd c50c 9ebd 8c46 84bd 59c8 7d3d
00000240: 1940 8abc a94e 043d b71b 823d 15b6 84bd
00000250: 44a8 ce3c b386 523d 9c9a 813d 73bd b4bd
00000260: ff90 c5bc 37c2 10bd 802f 0abd 17e1 6d3d
00000270: 9293 7fbd 9cb5 853d 8b9a d33c 35fb a5bd
00000280: c3fe 89bd a58a c5bb cd9d 5dbd 3de1 8ebd
00000290: f89b 48bd 2979 d8bc 86dd 81bd 91be 89bd
000002a0: eb8f 80bd 3e36 45bd a576 8c3d c2d5 b13d
000002b0: fa9f 653b e032 0f3d 82dc 8ebb da35 e7bc
000002c0: 9c2f 763d 7060 5cbd 31fe 55bd bdcf 61bd
000002d0: a84a 5fbd a933 823d 4c64 6d3d 6b6e 7abd
000002e0: 2fdd 073d 2351 833d 570b 6ebd 1d71 88bd
000002f0: 826e 8abd 1407 5d3d 7ae5 bd3c c5f4 7ebd
00000300: dc24 db3d 4d31 f23d 0761 98b9 78af eebc
00000310: de4c 933d 301a 993d b8b4 a2bc 1a91 e23b
00000320: f7d1 aa3d c76a ab3d 09d1 4dbd 6ec2 f03e
00000330: 26a9 023d b616 96bd 878e 623c e058 3bba
00000340: 73f2 67bc 7e8d 00be d8d3 003a 581a 15bc
00000350: 3f29 0ebd 7d5a 80bd 73e6 17bd be62 95bc
00000360: ef1b c5bc 8a7d a43d ab3f d9bd 79f7 bdbc
00000370: c754 b0bc f0cb 1abc 2418 82be c052 253d
00000380: 9181 e53b f9a4 4cbe a168 a23c 5b62 0bbb
00000390: e341 233b b65b 633c 9b82 ce3c a8be a93d
000003a0: c16a 74ba 7888 803b adf8 21bd 8cab cebd
000003b0: 7e67 44bd 4265 693d 47ce af3c 0456 25be
000003c0: fb6a 5a3b 7024 a43b 5754 82be 9d2b 6a3c
000003d0: cba0 433e 2d22 ce3b 6764 a03d f45d f33b
000003e0: d156 90be 5b1d 2d3d c3ab 07bc 8ce4 173c
000003f0: e760 06bc e763 d43c d3ee 573c 780d 183b

action_net.bias f4 [8]
-0.05235591 -0.022445409 -0.05939309 -0.011732528 0.025294963 -0.05451917 0.026413113 -0.0753532
00000000: 2773 56bd 6fdf b7bc 2b46 73bd ca39 40bc
00000010: 6237 cf3c 7e4f 5fbd 5060 d83c c752 9abd

value_net.weight f4 [1, 64]
-2.387003 2.4396796 -2.4094186 -2.3622375 2.5993445 -2.4403536 -2.4608064 2.465479
-2.587461 2.5496273 -2.4646645 -2.4089382 2.44788 -2.5101416 2.5195172 2.3862593
-2.4131212 -2.404498 -2.3604147 2.4144092 2.5272126 2.4825442 2.4947944 2.6450891
2.4168313 -2.5351126 -2.3928707 2.4230537 2.5159554 2.555665 -2.4094238 -2.4850042
-2.4978678 -2.4655786 2.5898678 -2.43823 2.4331129 2.4361343 -2.4000728 2.508837
-2.6292787 2.489293 -2.429577 2.4747922 -2.569496 2.4204562 -2.4499388 2.3732765
2.365212 2.3744397 2.4382718 -2.3668756 2.4247527 2.4030497 -2.6059618 -2.3716707
-2.476922 2.4392512 -2.4467 -2.5884476 -2.4732106 -2.395357 2.686512 2.4507227
00000000: a8c4 18c0 b623 1c40 ea33 1ac0 e62e 17c0
00000010: a95b 2640 c12e 1cc0 da7d 1dc0 68ca 1d40
00000020: f698 25c0 182d 2340 10bd 1dc0 0b2c 1ac0
00000030: 11aa 1c40 29a6 20c0 c53f 2140 79b8 1840
00000040: 9470 1ac0 4ce3 19c0 0911 17c0 ae85 1a40
00000050: dabd 2140 01e2 1e40 b6aa 1f40 2449 2940
00000060: 5dad 1a40 493f 22c0 cb24 19c0 5013 1b40
00000070: 6a05 2140 0490 2340 0034 1ac0 4f0a 1fc0
00000080: 11dd 1fc0 0acc 1dc0 65c0 2540 f60b 1cc0
00000090: 1fb8 1b40 a0e9 1b40 cb9a 19c0 c990 2040
000000a0: 1a46 28c0 9450 1f40 317e 1bc0 ff62 1e40
000000b0: 9f72 24c0 c1e8 1a40 cccb 1cc0 c3e3 1740
000000c0: a25f 1740 d2f6 1740 a50c 1c40 e47a 17c0
000000d0: 262f 1b40 91cb 1940 14c8 26c0 74c9 17c0
000000e0: e485 1ec0 b11c 1c40 bc96 1cc0 20a9 25c0
000000f0: 1549 1ec0 874d 19c0 d0ef 2b40 a4d8 1c40
